{"modelTopology":{"class_name":"Sequential","config":{"name":"sequential_3","layers":[{"class_name":"Flatten","config":{"name":"flatten_Flatten3","trainable":true,"batch_input_shape":[null,7,7,256],"dtype":"float32"}},{"class_name":"Dense","config":{"units":100,"activation":"relu","use_bias":true,"kernel_initializer":{"class_name":"VarianceScaling","config":{"scale":1,"mode":"fan_avg","distribution":"normal","seed":null}},"bias_initializer":{"class_name":"Zeros","config":{}},"kernel_regularizer":null,"bias_regularizer":null,"activity_regularizer":null,"kernel_constraint":null,"bias_constraint":null,"name":"dense_Dense5","trainable":true}},{"class_name":"Dense","config":{"units":2,"activation":"softmax","use_bias":true,"kernel_initializer":{"class_name":"VarianceScaling","config":{"scale":1,"mode":"fan_avg","distribution":"normal","seed":null}},"bias_initializer":{"class_name":"Zeros","config":{}},"kernel_regularizer":null,"bias_regularizer":null,"activity_regularizer":null,"kernel_constraint":null,"bias_constraint":null,"name":"dense_Dense6","trainable":true}}]},"keras_version":"tfjs-layers 2.7.0","backend":"tensor_flow.js"},"format":"layers-model","generatedBy":"TensorFlow.js tfjs-layers v2.7.0","convertedBy":null,"weightsManifest":[{"paths":["./my-model.weights.bin"],"weights":[{"name":"dense_Dense5/kernel","shape":[12544,100],"dtype":"float32"},{"name":"dense_Dense5/bias","shape":[100],"dtype":"float32"},{"name":"dense_Dense6/kernel","shape":[100,2],"dtype":"float32"},{"name":"dense_Dense6/bias","shape":[2],"dtype":"float32"}]}]}